…
2019-09-13 05:21:44,494 - Parameter 'module.layer4.0.conv1.weight' will be quantized to 8 bits
2019-09-13 05:21:44,496 - Parameter 'module.layer4.0.conv2.weight' will be quantized to 8 bits
2019-09-13 05:21:44,497 - Parameter 'module.layer4.0.downsample.0.weight' will be quantized to 8 bits
2019-09-13 05:21:44,497 - Parameter 'module.layer4.1.conv1.weight' will be quantized to 8 bits
2019-09-13 05:21:44,498 - Parameter 'module.layer4.1.conv2.weight' will be quantized to 8 bits
2019-09-13 05:21:44,498 - Parameter 'module.fc.weight' will be quantized to 8 bits
2019-09-13 05:21:44,501 - Quantized model:

DataParallel(
  (module): ResNet(
    (conv1): Conv2d(3, 64, kernel_size=(7, 7), stride=(2, 2), padding=(3, 3), bias=False)
    (bn1): BatchNorm2d(64, eps=1e-05, momentum=0.1, affine=True, track_running_stats=True)
    (relu): LearnedClippedLinearQuantization(num_bits=8, clip_val=8.0, inplace)
    (maxpool): MaxPool2d(kernel_size=3, stride=2, padding=1, dilation=1, ceil_mode=False)
    (layer1): Sequential(
      (0): BasicBlock(
        (conv1): Conv2d(64, 64, kernel_size=(3, 3), stride=(1, 1), padding=(1, 1), bias=False)
        (bn1): BatchNorm2d(64, eps=1e-05, momentum=0.1, affine=True, track_running_stats=True)
        (relu1): LearnedClippedLinearQuantization(num_bits=8, clip_val=8.0, inplace)
        (conv2): Conv2d(64, 64, kernel_size=(3, 3), stride=(1, 1), padding=(1, 1), bias=False)
        (bn2): BatchNorm2d(64, eps=1e-05, momentum=0.1, affine=True, track_running_stats=True)
        (relu2): LearnedClippedLinearQuantization(num_bits=8, clip_val=8.0, inplace)
      )
      (1): BasicBlock(
        (conv1): Conv2d(64, 64, kernel_size=(3, 3), stride=(1, 1), padding=(1, 1), bias=False)
        (bn1): BatchNorm2d(64, eps=1e-05, momentum=0.1, affine=True, track_running_stats=True)
        (relu1): LearnedClippedLinearQuantization(num_bits=8, clip_val=8.0, inplace)
        (conv2): Conv2d(64, 64, kernel_size=(3, 3), stride=(1, 1), padding=(1, 1), bias=False)
        (bn2): BatchNorm2d(64, eps=1e-05, momentum=0.1, affine=True, track_running_stats=True)
        (relu2): LearnedClippedLinearQuantization(num_bits=8, clip_val=8.0, inplace)
      )
    )
    (layer2): Sequential(
      (0): BasicBlock(
        (conv1): Conv2d(64, 128, kernel_size=(3, 3), stride=(2, 2), padding=(1, 1), bias=False)
        (bn1): BatchNorm2d(128, eps=1e-05, momentum=0.1, affine=True, track_running_stats=True)
        (relu1): LearnedClippedLinearQuantization(num_bits=8, clip_val=8.0, inplace)
        (conv2): Conv2d(128, 128, kernel_size=(3, 3), stride=(1, 1), padding=(1, 1), bias=False)
        (bn2): BatchNorm2d(128, eps=1e-05, momentum=0.1, affine=True, track_running_stats=True)
        (relu2): LearnedClippedLinearQuantization(num_bits=8, clip_val=8.0, inplace)
        (downsample): Sequential(
          (0): Conv2d(64, 128, kernel_size=(1, 1), stride=(2, 2), bias=False)
          (1): BatchNorm2d(128, eps=1e-05, momentum=0.1, affine=True, track_running_stats=True)
        )
      )
      (1): BasicBlock(
        (conv1): Conv2d(128, 128, kernel_size=(3, 3), stride=(1, 1), padding=(1, 1), bias=False)
        (bn1): BatchNorm2d(128, eps=1e-05, momentum=0.1, affine=True, track_running_stats=True)
        (relu1): LearnedClippedLinearQuantization(num_bits=8, clip_val=8.0, inplace)
        (conv2): Conv2d(128, 128, kernel_size=(3, 3), stride=(1, 1), padding=(1, 1), bias=False)
        (bn2): BatchNorm2d(128, eps=1e-05, momentum=0.1, affine=True, track_running_stats=True)
        (relu2): LearnedClippedLinearQuantization(num_bits=8, clip_val=8.0, inplace)
      )
    )
    (layer3): Sequential(
      (0): BasicBlock(
        (conv1): Conv2d(128, 256, kernel_size=(3, 3), stride=(2, 2), padding=(1, 1), bias=False)
        (bn1): BatchNorm2d(256, eps=1e-05, momentum=0.1, affine=True, track_running_stats=True)
        (relu1): LearnedClippedLinearQuantization(num_bits=8, clip_val=8.0, inplace)
        (conv2): Conv2d(256, 256, kernel_size=(3, 3), stride=(1, 1), padding=(1, 1), bias=False)
        (bn2): BatchNorm2d(256, eps=1e-05, momentum=0.1, affine=True, track_running_stats=True)
        (relu2): LearnedClippedLinearQuantization(num_bits=8, clip_val=8.0, inplace)
        (downsample): Sequential(
          (0): Conv2d(128, 256, kernel_size=(1, 1), stride=(2, 2), bias=False)
          (1): BatchNorm2d(256, eps=1e-05, momentum=0.1, affine=True, track_running_stats=True)
        )
      )
      (1): BasicBlock(
        (conv1): Conv2d(256, 256, kernel_size=(3, 3), stride=(1, 1), padding=(1, 1), bias=False)
        (bn1): BatchNorm2d(256, eps=1e-05, momentum=0.1, affine=True, track_running_stats=True)
        (relu1): LearnedClippedLinearQuantization(num_bits=8, clip_val=8.0, inplace)
        (conv2): Conv2d(256, 256, kernel_size=(3, 3), stride=(1, 1), padding=(1, 1), bias=False)
        (bn2): BatchNorm2d(256, eps=1e-05, momentum=0.1, affine=True, track_running_stats=True)
        (relu2): LearnedClippedLinearQuantization(num_bits=8, clip_val=8.0, inplace)
      )
    )
    (layer4): Sequential(
      (0): BasicBlock(
        (conv1): Conv2d(256, 512, kernel_size=(3, 3), stride=(2, 2), padding=(1, 1), bias=False)
        (bn1): BatchNorm2d(512, eps=1e-05, momentum=0.1, affine=True, track_running_stats=True)
        (relu1): LearnedClippedLinearQuantization(num_bits=8, clip_val=8.0, inplace)
        (conv2): Conv2d(512, 512, kernel_size=(3, 3), stride=(1, 1), padding=(1, 1), bias=False)
        (bn2): BatchNorm2d(512, eps=1e-05, momentum=0.1, affine=True, track_running_stats=True)
        (relu2): LearnedClippedLinearQuantization(num_bits=8, clip_val=8.0, inplace)
        (downsample): Sequential(
          (0): Conv2d(256, 512, kernel_size=(1, 1), stride=(2, 2), bias=False)
          (1): BatchNorm2d(512, eps=1e-05, momentum=0.1, affine=True, track_running_stats=True)
        )
      )
      (1): BasicBlock(
        (conv1): Conv2d(512, 512, kernel_size=(3, 3), stride=(1, 1), padding=(1, 1), bias=False)
        (bn1): BatchNorm2d(512, eps=1e-05, momentum=0.1, affine=True, track_running_stats=True)
        (relu1): LearnedClippedLinearQuantization(num_bits=8, clip_val=8.0, inplace)
        (conv2): Conv2d(512, 512, kernel_size=(3, 3), stride=(1, 1), padding=(1, 1), bias=False)
        (bn2): BatchNorm2d(512, eps=1e-05, momentum=0.1, affine=True, track_running_stats=True)
        (relu2): LearnedClippedLinearQuantization(num_bits=8, clip_val=8.0, inplace)
      )
    )
    (avgpool): AvgPool2d(kernel_size=7, stride=1, padding=0)
    (fc): Linear(in_features=512, out_features=1000, bias=True)
  )
)

2019-09-13 05:21:44,552 - Writing Clip Parameter Value... ... ... ...
2019-09-13 05:21:44,559 - 

2019-09-13 05:21:44,559 - +--------------------------------+--------------+
| Layers                         |   PACT_alpha |
|--------------------------------+--------------|
| module.relu.clip_val           |            8 |
| module.layer1.0.relu1.clip_val |            8 |
…
